trained_model.pth (torch, 29188 bytes, 5 tensors)

layer1.weight f4 [8, 110]
00000000: d209 a83e 1d05 ad3e 50fc aebd 748a 7d3d
00000010: caec 70bd 004f 833d e0f1 d73b 725f a1bd
00000020: ef74 933e 4945 68bd 6698 9c3d b430 8c3d
00000030: 3604 9dbd 79da 4d3f 2cda 4c3d f152 92bd
00000040: 444a cd3c b4bb 9dbe dca0 5d3d cc1c 673f
00000050: d878 fb3c e06f e33b 247b 9fbe 9071 b93d
00000060: 9766 c33e 231c 2e3f 2002 223b 3ca9 81bd
00000070: f9be 80bd 29f9 9bbd 8cf2 d3bc 27f6 b9bd
00000080: 57e5 d33d 30ad 733d f881 ffbc 157e b6bd
00000090: 5eb5 bd3d 9407 d8bc a577 ec3e b2b7 74be
000000a0: f88d c1bc a02d 893d 05f3 083f dcb3 d9be
000000b0: 6918 41bd f0f3 013d 602d 333d 1215 99bd
000000c0: 9c65 a23c dccf 0abd d036 97bc 3ebd 8dbd
000000d0: 6091 0bbc 009a 4c3c 1f3d 973e 2af1 b43d
000000e0: a06e 693d cce4 023d 00f5 4e3d 940b 2e3d
000000f0: d61c ba3d 6657 ba3d 9fa4 3d3e 282c c33d
00000100: 8442 bc3d 99fd 693f 1811 363d 4c1e 593d
00000110: 2476 903c f561 84be 22ec 803d 2c3d 763d
00000120: 60f3 813b 6be1 1abd 1c53 1e3d 3ed8 7d3f
00000130: 28ee 90bd 9883 2e3c d0b8 f8bb 6fdb c13e
00000140: c6f2 8cbe fc76 643d fa3b 3fbd a859 6ebc
00000150: 8097 bcbd 05a2 b6bd c637 cabe ff80 cf3e
00000160: b4df fcbc ecd6 e73c 9c40 633d 588b 12bd
00000170: 9758 2dbd e20f b23e 5cbf 293f e836 3d3c
00000180: f8b4 5e3d f04f 483d 500a 6f3c 3edf a73e
00000190: 64fc 1e3d 4c36 f3bc c683 863e dde2 10bd
000001a0: 7f6e ec3e 00e2 43bb c24e 04bd b644 09bd
000001b0: 20ba 1c3c 8c6a 843d 13e3 923e 9078 d03e
000001c0: b010 a63d 6ce0 09bd d0b6 a6bc 42db bf3d
000001d0: b855 7dbc 60d5 8e3b 1f21 ea3e 10d7 533d
000001e0: 9bf5 60bd 0220 8a3d 4c98 b53d 38aa 02bf
000001f0: ce79 acbd 9889 6abc a0b4 f0bc 2b8b ebbe
00000200: 7c63 8b3c 37c3 10bf 3cf4 a0bd 8358 b0bd
00000210: 550a 563f 80d9 563d dcda 073f 5217 d9bc
00000220: 9832 f5bc e4ff c23d 80cd 7fbd a404 953d
00000230: d110 8fbd c44a 96bc 2e24 233f 2c75 b63d
00000240: 1cf1 32bd bf3d 91bd 35db 8abd 4c87 58bd
00000250: 576b e53e 1743 aa3f 1845 1c3d a802 5b3d
00000260: 7887 f23e deae 5d3f 984d fd3c 9a76 833d
00000270: 8474 2b3d e75a 8dbd 4ad1 9f3d 76c9 96bd
00000280: da6c 993d d839 103d 9800 8b3d 9023 98bd
00000290: 2aa7 c13e 0048 9e39 d8d8 ba3d d400 6e3d
000002a0: fb09 2bbd d06f 643c 80cf 8f3d 7011 d73b
000002b0: 696f c63e d84f 003c 30df b8bb a749 e6be
000002c0: 02b8 bf3d 80f7 353c 9884 8f3d 39df 06bf
000002d0: f430 383d c0ba 963c d446 783d e8fe 15bc
000002e0: ac67 9ebc 67ac d7be 0035 c23c 3025 553d
000002f0: 1e60 933d 81d8 de3e 4e3b aa3f 109e 233d
00000300: 20d3 59bc fcd2 8f3d 5c6e 003d 746a cc3c
00000310: 918a 733f 0784 703e e82d 4d3d c288 a53d
00000320: 9ecc 03bd e8cd b5bd f452 d1bc 0d9f de3e
00000330: 9690 1b3f 8828 343d d9f2 20bd ccef 9abc
00000340: 8ea2 9d3d 79a9 893e 7411 f6bc b57b 21bd
00000350: 6a88 8e3e e881 6f3d 733c 7a3f f8e1 87bc
00000360: 9f06 35bd 502c bf3d 44ed 92bd 2e33 913d
00000370: 1521 de3e 7855 20bf 9c15 ae3c 0275 86bd
00000380: 10dc babd f4be 283d 184b 283d 1841 febc
00000390: ad78 ebbe b7b3 80bd 4661 be3d c0c1 41bc
000003a0: c527 a7bd a5d1 263f 04a7 1cbd c82a d9bc
000003b0: 18d3 0c3d 9c12 97be f0c0 173c 19f2 6a3f
000003c0: b429 cebc d83f 933d 10f0 8c3f 2efc 823d
000003d0: 7265 c3be bb10 153f 7c53 afbc f48a 1e3d
000003e0: c0d8 6a3d f898 e1bc 424b b83d 5073 4c3d
000003f0: 9931 193e 5cbe 323d f042 083c e9b8 adbd
0.32819992 0.33792964 -0.085442185 0.061899617 -0.05881957 0.064115524 0.006590113 -0.07879533
0.2880015 -0.0567067 0.07646255 0.06845227 -0.07666819 0.8041149 0.050012752 -0.07144726
0.025059827 -0.3080727 0.054108486 0.90278316 0.030697271 0.006940827 -0.31148636 0.090548635
0.38164207 0.68011683 0.0024720505 -0.06331107 -0.06286425 -0.07615883 -0.025872491 -0.09080153
0.103464775 0.059491336 -0.031189904 -0.08910767 0.09263109 -0.026370801 0.46185032 -0.23898199
-0.023627266 0.066981554 0.5349582 -0.42520034 -0.04714242 0.031726778 0.043744445 -0.07474722
0.019823842 -0.033889636 -0.018458754 -0.06920861 -0.008518547 0.012487888 0.2953882 0.08835061
0.056990266 0.03195648 0.05052662 0.04249151 0.09087531 0.09098701 0.18519829 0.095299065
0.09192374 0.91402584 0.044449896 0.05300741 0.017634459 -0.25855985 0.06295039 0.06011693
0.00396578 -0.03781263 0.038653478 0.99158084 -0.07076675 0.010651492 -0.0075903907 0.37862727
-0.2752897 0.055777535 -0.046688057 -0.014547743 -0.09208584 -0.089176215 -0.39495677 0.40528104
-0.030868389 0.028300725 0.05548154 -0.03577742 -0.042320814 0.34777743 0.66307616 0.011548735
0.054371804 0.04890436 0.014589861 0.32787508 0.038814917 -0.029688977 0.2627241 -0.035372604
0.46178052 -0.0029889345 -0.03230167 -0.033512793 0.00956586 0.06465635 0.2868887 0.40716982
0.08108652 -0.03366129 -0.020350844 0.09367992 -0.0154623315 0.0043589324 0.45728394 0.05171877
-0.054921728 0.06744386 0.08866939 -0.51040983 -0.0842167 -0.0143150315 -0.029383004 -0.46004614
0.017015211 -0.56547874 -0.07859084 -0.08610632 0.83609515 0.052453518 0.5306833 -0.026500378
-0.029931352 0.095214635 -0.06245184 0.07276276 -0.06985629 -0.018346198 0.6372708 0.089090675
-0.04368697 -0.07091855 -0.06780092 -0.052863404 0.44808456 1.3301724 0.03815183 0.05346933
0.4736898 0.8659495 0.030920789 0.06419106 0.041859165 -0.06902104 0.078035906 -0.073626444
0.07491465 0.035211414 0.067872226 -0.07428658 0.3782285 0.00030189753 0.09123391 0.05810626
-0.041757565 0.013942674 0.07021999 0.006563358 0.38756874 0.007831536 -0.0056418404 -0.44978067
0.093612686 0.011106372 0.07007712 -0.5268436 0.04496856 0.018399596 0.060614422 -0.009155013
-0.019336544 -0.4212372 0.023706913 0.052037418 0.07196067 0.43524554 1.3299348 0.039945662
-0.013294965 0.07022664 0.031355247 0.024953105 0.9513331 0.23487864 0.050092608 0.08082725
-0.03217756 -0.08877164 -0.02555225 0.4348072 0.60767496 0.043983966 -0.039294098 -0.018913172
0.076970205 0.2688711 -0.03003762 -0.039424617 0.2783845 0.058473498 0.9774849 -0.016587242
-0.044195767 0.09334624 -0.07174161 0.0708984 0.43384615 -0.62630415 0.021250539 -0.06565286
-0.09124005 0.041197732 0.04108724 -0.031036898 -0.45990506 -0.06284278 0.09295897 -0.011825979
-0.08161882 0.6516364 -0.038245216 -0.026509658 0.034381002 -0.29506385 0.0092623085 0.9177566
-0.02516637 0.071899116 1.1010761 0.06395756 -0.38163334 0.58228654 -0.021402113 0.038706735
0.057335615 -0.027538761 0.08998729 0.049914658 0.14960326 0.043638572 0.00831674 -0.084825344

layer1.bias f4 [8]
00000000: 8cfb 103f 6c99 7c3f 61ff 1b3f e61c 343f
00000010: 9f16 b9bd f0e3 893f 17f0 5e3f 809a 24bd
0.5663383 0.98671603 0.6093655 0.70356596 -0.09037518 1.0772686 0.870851 -0.040186405

layer2.weight f4 [9, 8]
00000000: 5fb1 333f c62d bfbf 0bb1 923f 6710 903d
00000010: e37d 28be fc97 1a3f 854d 9cbf f665 8cbe
00000020: b9ac 333f aae1 4d3e 8467 c13e 68a4 c5bf
00000030: 4312 5bbe 573b a2bf 9d14 213f fde6 6bbe
00000040: fa17 7cbf 7ea4 3d3f 0d13 233f 7bd9 f7be
00000050: 34f4 9a3d 0b13 9abf 1e0b aabf e01a adbe
00000060: bcc1 8bbf ff5e 90bf 8750 63bf 39ba d93f
00000070: 2ffa 8cbe 0a46 b7bf 4398 89bf 66ee e13c
00000080: aec6 5a3e 8684 f93d 19a8 b3bf fcbb e83e
00000090: be5a 17be 9366 b73e 8a99 373f 02b6 45be
000000a0: a25e babd 8a28 923f 66f2 9abf bd31 eebf
000000b0: 50ca 89bd 0fab ba3f 88df b2bf 448a 123e
000000c0: 20cf 3fbe 9582 26bf 76f0 24bf 5c5a 4bbf
000000d0: 014d ad3e 43d1 71bf 9cbe 1cbf df58 35be
000000e0: 667e 19bf db64 68bf 2aa7 15bf 3b15 92bf
000000f0: 2051 4a3c 1286 ffbe 57fd eabe fd58 72bd
00000100: cb62 29bf 398b 05bf 6be4 50bf a954 64bf
00000110: 8005 fb3c 2660 65bf ee1a 9fbe 6aab 96be
0.7019252 -1.4935844 1.1460279 0.070343785 -0.16454272 0.6038816 -1.2211157 -0.2742154
0.7018543 0.20105615 0.3777429 -1.5440798 -0.21393685 -1.2674359 0.6292208 -0.23037334
-0.98474085 0.7407912 0.63700944 -0.48408112 0.07566109 -1.2037061 -1.3284643 -0.33809566
-1.0918498 -1.127899 -0.8879475 1.7009956 -0.27534625 -1.4318249 -1.0749592 0.027579498
0.21364853 0.1218348 -1.4035674 0.4545592 -0.14780709 0.35820445 0.71718657 -0.19307712
-0.09100081 1.1418622 -1.2105224 -1.8608929 -0.06728041 1.4583453 -1.3974466 0.14310557
-0.18731356 -0.65043 -0.64429414 -0.7943475 0.33847812 -0.94459933 -0.61228347 -0.17709683
-0.59958494 -0.90778893 -0.584582 -1.1412729 0.012348443 -0.49906975 -0.45896408 -0.059166897
-0.6616637 -0.5216556 -0.8159854 -0.8919168 0.030642271 -0.89599836 -0.31075233 -0.29427654

layer2.bias f4 [9]
00000000: 178e 9bbe 4c00 c7bd 1364 2c3c 8092 1d3f
00000010: 355b e0be dd55 533f 06d3 2bbf e891 0ebf
00000020: 6a08 e0be
-0.30381843 -0.097168535 0.010521906 0.61551666 -0.43819585 0.8255289 -0.6711887 -0.55691385
-0.4375642

tensors f4 [45, 110]
00000000: 0000 0000 0000 0000 0000 0000 0000 0000
00000010: 0000 0000 0000 0000 0000 0000 0000 0000
00000020: 0000 0000 0000 0000 0000 0000 0000 0000
00000030: 0000 0000 0000 0000 0000 803f 0000 0000
00000040: 0000 0000 0000 0000 0000 0000 0000 0000
00000050: 0000 0000 0000 0000 0000 0000 0000 0000
00000060: 0000 0000 0000 0000 0000 0000 0000 0000
00000070: 0000 0000 0000 0000 0000 0000 0000 0000
00000080: 0000 0000 0000 0000 0000 0000 0000 0000
00000090: 0000 0000 0000 0000 0000 0000 0000 0000
000000a0: 0000 0000 0000 0000 0000 0000 0000 0000
000000b0: 0000 0000 0000 0000 0000 0000 0000 0000
000000c0: 0000 0000 0000 0000 0000 0000 0000 0000
000000d0: 0000 0000 0000 0000 0000 0000 0000 0000
000000e0: 0000 0000 0000 0000 0000 0000 0000 0000
000000f0: 0000 0000 0000 0000 0000 0000 0000 0000
00000100: 0000 0000 0000 0000 0000 0000 0000 803f
00000110: 0000 0000 0000 0000 0000 0000 0000 0000
00000120: 0000 0000 0000 0000 0000 0000 0000 0000
00000130: 0000 0000 0000 0000 0000 0000 0000 0000
00000140: 0000 0000 0000 0000 0000 0000 0000 0000
00000150: 0000 0000 0000 0000 0000 0000 0000 0000
00000160: 0000 0000 0000 0000 0000 0000 0000 0000
00000170: 0000 0000 0000 0000 0000 0000 0000 0000
00000180: 0000 803f 0000 0000 0000 0000 0000 0000
00000190: 0000 0000 0000 0000 0000 0000 0000 0000
000001a0: 0000 0000 0000 0000 0000 0000 0000 0000
000001b0: 0000 0000 0000 0000 0000 0000 0000 0000
000001c0: 0000 0000 0000 0000 0000 0000 0000 0000
000001d0: 0000 0000 0000 0000 0000 0000 0000 0000
000001e0: 0000 0000 0000 0000 0000 0000 0000 803f
000001f0: 0000 0000 0000 0000 0000 0000 0000 0000
00000200: 0000 0000 0000 0000 0000 0000 0000 0000
00000210: 0000 0000 0000 0000 0000 0000 0000 0000
00000220: 0000 0000 0000 0000 0000 0000 0000 0000
00000230: 0000 0000 0000 803f 0000 0000 0000 0000
00000240: 0000 0000 0000 0000 0000 0000 0000 0000
00000250: 0000 0000 0000 0000 0000 0000 0000 0000
00000260: 0000 0000 0000 0000 0000 0000 0000 0000
00000270: 0000 0000 0000 0000 0000 0000 0000 0000
00000280: 0000 0000 0000 0000 0000 0000 0000 0000
00000290: 0000 0000 0000 0000 0000 0000 0000 0000
000002a0: 0000 0000 0000 0000 0000 0000 0000 0000
000002b0: 0000 0000 0000 0000 0000 803f 0000 0000
000002c0: 0000 0000 0000 0000 0000 0000 0000 0000
000002d0: 0000 0000 0000 0000 0000 0000 0000 0000
000002e0: 0000 0000 0000 0000 0000 803f 0000 0000
000002f0: 0000 0000 0000 0000 0000 0000 0000 0000
00000300: 0000 0000 0000 0000 0000 0000 0000 0000
00000310: 0000 0000 0000 0000 0000 0000 0000 0000
00000320: 0000 0000 0000 0000 0000 0000 0000 0000
00000330: 0000 0000 0000 0000 0000 0000 0000 0000
00000340: 0000 0000 0000 0000 0000 0000 0000 0000
00000350: 0000 0000 0000 0000 0000 0000 0000 0000
00000360: 0000 0000 0000 0000 0000 0000 0000 0000
00000370: 0000 0000 0000 0000 0000 0000 0000 0000
00000380: 0000 0000 0000 0000 0000 0000 0000 0000
00000390: 0000 0000 0000 0000 0000 0000 0000 0000
000003a0: 0000 0000 0000 0000 0000 0000 0000 0000
000003b0: 0000 0000 0000 803f 0000 0000 0000 0000
000003c0: 0000 0000 0000 0000 0000 0000 0000 0000
000003d0: 0000 0000 0000 0000 0000 0000 0000 0000
000003e0: 0000 0000 0000 0000 0000 0000 0000 0000
000003f0: 0000 0000 0000 0000 0000 0000 0000 0000
0.0 0.0 0.0 0.0 0.0 0.0 0.0 0.0
0.0 0.0 0.0 0.0 0.0 0.0 1.0 0.0
0.0 0.0 0.0 0.0 0.0 0.0 0.0 0.0
0.0 0.0 0.0 0.0 0.0 0.0 0.0 0.0
0.0 0.0 0.0 0.0 0.0 0.0 0.0 0.0
0.0 0.0 0.0 0.0 0.0 0.0 0.0 0.0
0.0 0.0 0.0 0.0 0.0 0.0 0.0 0.0
0.0 0.0 0.0 0.0 0.0 0.0 0.0 0.0
0.0 0.0 0.0 1.0 0.0 0.0 0.0 0.0
0.0 0.0 0.0 0.0 0.0 0.0 0.0 0.0
0.0 0.0 0.0 0.0 0.0 0.0 0.0 0.0
0.0 0.0 0.0 0.0 0.0 0.0 0.0 0.0
1.0 0.0 0.0 0.0 0.0 0.0 0.0 0.0
0.0 0.0 0.0 0.0 0.0 0.0 0.0 0.0
0.0 0.0 0.0 0.0 0.0 0.0 0.0 0.0
0.0 0.0 0.0 1.0 0.0 0.0 0.0 0.0
0.0 0.0 0.0 0.0 0.0 0.0 0.0 0.0
0.0 0.0 0.0 0.0 0.0 1.0 0.0 0.0
0.0 0.0 0.0 0.0 0.0 0.0 0.0 0.0
0.0 0.0 0.0 0.0 0.0 0.0 0.0 0.0
0.0 0.0 0.0 0.0 0.0 0.0 0.0 0.0
0.0 0.0 0.0 0.0 0.0 0.0 1.0 0.0
0.0 0.0 0.0 0.0 0.0 0.0 0.0 0.0
0.0 0.0 1.0 0.0 0.0 0.0 0.0 0.0
0.0 0.0 0.0 0.0 0.0 0.0 0.0 0.0
0.0 0.0 0.0 0.0 0.0 0.0 0.0 0.0
0.0 0.0 0.0 0.0 0.0 0.0 0.0 0.0
0.0 0.0 0.0 0.0 0.0 0.0 0.0 0.0
0.0 0.0 0.0 0.0 0.0 0.0 0.0 0.0
0.0 0.0 0.0 0.0 0.0 1.0 0.0 0.0
0.0 0.0 0.0 0.0 0.0 0.0 0.0 0.0
0.0 0.0 0.0 0.0 0.0 0.0 0.0 0.0
