trained_model.pth (torch, 6980 bytes, 5 tensors)

layer1.weight f4 [8, 38]
00000000: a2a7 ad3d ebeb 27bf c7bf 783e e96f 153e
00000010: 381b 943d e095 1ebe 2bc8 233f 54cc 84bd
00000020: 019e f23e 4a96 e43d 3f41 953e 96c5 d7bd
00000030: 40cf c03b 95fd a8bd 9dde 143e 8165 f2bd
00000040: 84d5 913d 1000 d9bd 7f22 0bbe 21c0 04be
00000050: 725a f1bd 185f d03c a657 d13d 6932 c03e
00000060: 988e f53c 2b78 f93e 62a5 2d3f 4e75 ec3d
00000070: ec75 66bd 3477 12bd f6e8 e83d e648 d13d
00000080: aa13 67bd fa5a f23d bc60 fabd 8706 a6bd
00000090: de2c ca3d f0dd 9dbd 0a22 8abd 1000 91bc
000000a0: 2003 d93d 1ed8 f73d f27e f03d d0ab 8ebc
000000b0: 24b0 02be b4d1 a03d 00d6 9a3b 875e c7bd
000000c0: c8ff 4c3c f150 b7bd 9adf f63d 2889 73bd
000000d0: 90b5 babc 564b 54bd dfd9 c6bd 466b 823d
000000e0: 5a73 d03d 6617 11be cc8e 57bd 0aa7 913d
000000f0: a093 80bc 5615 47bd c088 153d f16e 00bd
00000100: a4d3 9cbd b0d3 b9bc baa8 01be 2890 0cbd
00000110: 748f 43bd b9d8 a5bd c0de c73b fc26 4e3d
00000120: 90a3 ae3d ba3e a73d 1296 0fbe e8d2 a63c
00000130: 9d54 1c3e 7516 3b3f 08b5 81be b47f 7e3d
00000140: a067 77bc 6881 e2bd df9c e7be d5f2 043e
00000150: e57d 55be d21b c03d 91ed fa3c 4bc8 98bd
00000160: 1462 abbd a050 f53b f786 bbbd 0468 03be
00000170: 33c6 063e 00f9 dbbb 1821 4fbd fdda 253e
00000180: 956d aabd 1cb0 9dbd e037 c9bc 8bef 5cbe
00000190: b00a e3bd c263 64be 0029 29bf 9d1c 9abd
000001a0: ccf2 38bd cf3c 153e e61f f53d 9819 26be
000001b0: f26d 0bbe e035 273c ca56 45bd e7cd 013e
000001c0: 2255 90bd b400 673d 843b 13bd 0299 403f
000001d0: 4fdc 1a3f 993b b3bd aee9 c53d 8105 093e
000001e0: 2132 6ebe f044 99bc b7c9 e2be 18bf efbd
000001f0: 71dd 223f 1619 d7bd c0d5 893d 2b4a 1d3e
00000200: 0ca0 683d 8a27 cd3d 4012 563d a2a8 ce3d
00000210: eacd c83d 0079 713c 0ffb 0d3e 8e4c f93d
00000220: e658 14be 7187 253f 05fc c1bd 1c4d 193f
00000230: 5bec 2cbf 5078 7abc 92bc be3d b5f7 033e
00000240: f2c4 54bd 5117 c6bd 3636 ec3d 171a bebd
00000250: 327d bb3d d9aa 033e 0922 073e e20d fc3d
00000260: 4051 f23b 41d6 77be a451 503f 40b0 2bbd
00000270: 61c7 1bbe 74c1 823d e704 e13e 406d 74bb
00000280: 7c77 ce3e 6895 d0bc bf85 123f cea4 74bd
00000290: 8e30 d43d 300a 2a3c 0bf6 173e 3f48 0d3e
000002a0: 3a95 a53d 9013 f9bc 917d 203e d67d cebd
000002b0: c397 05be 0857 883d 70fe 443c 42a2 163f
000002c0: 8895 b6bc b67f 463f 3b3d bd3e e5b2 08be
000002d0: ac67 1b3d 7039 e53c ed55 e1bd 882f a6bd
000002e0: 0846 ac3d 6cc4 673d 47c0 b9bd e075 68bc
000002f0: c028 c3bd fc02 9abd 8a67 9c3d f759 f83e
00000300: c28c 61be 0ead cd3d 9422 6e3d 68bb 9f3c
00000310: b7de 033f e6bc 51bd aa24 333f 4063 ee3b
00000320: 95ee cabc 2a48 ba3d 5011 81bc 70ac 2c3c
00000330: 00ec 383b cea1 d93d c01f 75bb eab5 1abe
00000340: 3ca9 39bd 37ea 183e d520 8abd 5ede c93d
00000350: b02f f2bd 571e 5fbe 94ff 9d3d 563f 6fbe
00000360: 535c 213f 74b5 a93d 28c2 27bd efd3 13be
00000370: 609d 11be cc1e d2bd bfc6 073e e8ff 1cbe
00000380: 25ed 113e 20f5 8e3c 36f4 f1bd a5ac 233e
00000390: 6000 f0bc 0157 bb3e fb47 fabd e673 b43d
000003a0: 9481 81bd 42f7 f63d f1c1 e43e 1e32 4dbd
000003b0: 98f7 273f 5d1e 0cbe 05c7 9dbe 40a4 a13c
000003c0: aa12 1dbe 5408 76bd a0a1 fbbb 5db2 afbd
000003d0: 1c9d 963d ec8e 853d 9062 a2bc 9c1d 2f3d
000003e0: d42c 1cbe aeb8 7fbd b1d1 0dbe 765a 3ebc
000003f0: bd32 153e d996 bfbd fc85 3f3f 760f 1cbd
0.08479239 -0.6559436 0.24291907 0.14593472 0.07231754 -0.1548686 0.6397731 -0.06484285
0.47386172 0.11161478 0.2915134 -0.105357334 0.005884081 -0.08251492 0.14538045 -0.118357666
0.07120803 -0.10595715 -0.13587378 -0.12963916 -0.11784829 0.02543597 0.10221796 0.3753846
0.02997522 0.48724493 0.6783048 0.115458116 -0.056264803 -0.035758212 0.11372559 0.102189824
-0.056415237 0.11833759 -0.12225482 -0.08106714 0.09871839 -0.07708347 -0.06744774 -0.017700225
0.10596299 0.12101768 0.11742963 -0.017415911 -0.12762505 0.07852498 0.004725218 -0.097348265
0.012512155 -0.08950985 0.12054367 -0.059456974 -0.022791654 -0.05182966 -0.09709524 0.06368117
0.101782516 -0.14169082 -0.052626416 0.07111938 -0.015695393 -0.048604332 0.036507368 -0.031355802
-0.07657555 -0.022683948 -0.1266202 -0.034317166 -0.04774423 -0.08097977 0.006099552 0.050330147
0.08527291 0.08166261 -0.14022091 0.02036424 0.15266652 0.7308114 -0.25333428 0.062133506
-0.01510039 -0.110598385 -0.4523687 0.12983258 -0.20848806 0.09380306 0.030630859 -0.07460078
-0.08368316 0.007486418 -0.09156602 -0.12832648 0.13161545 -0.0067130327 -0.05056867 0.16196819
-0.08321682 -0.07699606 -0.024562776 -0.21575753 -0.11086023 -0.2230368 -0.66078186 -0.07524989
-0.045153424 0.14573978 0.11968975 -0.162207 -0.1361616 0.010205716 -0.04817847 0.12676202
-0.07047488 0.056397155 -0.03594543 0.7523347 0.60492414 -0.08751602 0.096637115 0.13381006
-0.2326131 -0.01870963 -0.4429452 -0.1170637 0.6361914 -0.10502832 0.06730223 0.15360324
0.056793258 0.10017307 0.0522635 0.10090758 0.098049 0.014738321 0.13865303 0.12172805
-0.14487037 0.6465979 -0.09471897 0.59883285 -0.6754815 -0.015287474 0.09313311 0.12887461
-0.051945634 -0.09672416 0.115337774 -0.0928232 0.091547385 0.12858142 0.13196577 0.123073354
0.0073949397 -0.24202825 0.81374574 -0.041916132 -0.15212776 0.063845545 0.43949053 -0.0037296563
0.40325534 -0.025461867 0.5723533 -0.059727482 0.103608236 0.010378405 0.14839952 0.13797091
0.08085103 -0.030404836 0.156729 -0.10082595 -0.13046174 0.06657225 0.012023553 0.58841336
-0.022288099 0.7753862 0.36960778 -0.13349493 0.037940666 0.02798149 -0.11002717 -0.081145346
0.08411795 0.056583807 -0.09069877 -0.01418826 -0.09529257 -0.075201005 0.07636936 0.48506138
-0.22026351 0.10042773 0.058138445 0.019498542 0.5151171 -0.05120554 0.6997782 0.007275015
-0.024771968 0.090957955 -0.015755326 0.010539159 0.002821684 0.10626565 -0.0037402958 -0.15108457
-0.04532741 0.14933096 -0.067445435 0.09856866 -0.11825502 -0.21788917 0.07714763 -0.23364004
0.630315 0.082865626 -0.040956646 -0.14436315 -0.1422019 -0.1025978 0.1325941 -0.15331995
0.1425062 0.01745087 -0.11814158 0.15983827 -0.029297054 0.36589816 -0.122207604 0.088111684
-0.06323543 0.120588794 0.44679216 -0.050096624 0.65612173 -0.13683458 -0.30815902 0.01973164
-0.15339151 -0.060066536 -0.0076791793 -0.08578942 0.07354185 0.06521401 -0.019822389 0.042752847
-0.15251476 -0.062431984 -0.13849522 -0.011618247 0.14570136 -0.09354944 0.7481382 -0.038100682

layer1.bias f4 [8]
00000000: 0beb 273f c074 7dbd d52a 293f b6e9 2c3f
00000010: 17ce 773e ad4a 323f 2dee 083f 0bb8 0dbe
0.6559302 -0.06187892 0.6608098 0.67544115 0.24199711 0.69645196 0.5348843 -0.13839738

layer2.weight f4 [4, 8]
00000000: 0255 15bf dc3b 993e 8c00 cfbe bc7f 15bf
00000010: 61d0 a1be b057 b8be e90e 1fbf 2bb9 913e
00000020: 2c57 40bf 7773 babe ecba 863f bfe8 3d3f
00000030: a1f3 7dbf 0fa5 053f 6d88 b33e 0fbc 77bc
00000040: e741 8e3f 931d b5be 7eef 4dbf 8ca8 6fbf
00000050: 6a22 abbe a2f3 343f 50e9 5b3f 23c1 b2ba
00000060: a22d 133f 9de4 26be 4029 13bf 6990 ad3e
00000070: a990 083f 5e79 44bf 1a73 18bf 87b5 24be
-0.58332837 0.29928482 -0.40430105 -0.5839803 -0.31604293 -0.360044 -0.62132126 0.28461584
-0.75133014 -0.36416218 1.0525794 0.7418327 -0.99199873 0.52204984 0.35065022 -0.01512052
1.1113862 -0.35374126 -0.8044356 -0.9361656 -0.33424693 0.70684254 0.8590288 -0.0013637881
0.57491505 -0.16298147 -0.5748482 0.3389924 0.53345734 -0.7674769 -0.5955063 -0.16084872

layer2.bias f4 [4]
00000000: 2ea4 43be 2ec7 253e 404e 073f bcbf 31be
-0.19105598 0.16189262 0.52853775 -0.17358297

tensors f4 [13, 38]
00000000: 0000 0000 0000 0000 0000 0000 0000 0000
00000010: 0000 0000 0000 0000 0000 0000 0000 0000
00000020: 0000 0000 0000 803f 0000 0000 0000 0000
00000030: 0000 0000 0000 0000 0000 0000 0000 0000
00000040: 0000 0000 0000 0000 0000 0000 0000 803f
00000050: 0000 0000 0000 0000 0000 0000 0000 0000
00000060: 0000 0000 0000 0000 0000 0000 0000 0000
00000070: 0000 0000 0000 0000 0000 0000 0000 0000
00000080: 0000 803f 0000 0000 0000 0000 0000 0000
00000090: 0000 0000 0000 0000 0000 0000 0000 0000
000000a0: 0000 0000 0000 803f 0000 0000 0000 803f
000000b0: 0000 0000 0000 0000 0000 0000 0000 803f
000000c0: 0000 0000 0000 0000 0000 0000 0000 0000
000000d0: 0000 0000 0000 803f 0000 0000 0000 0000
000000e0: 0000 803f 0000 803f 0000 0000 0000 0000
000000f0: 0000 0000 0000 0000 0000 0000 0000 0000
00000100: 0000 0000 0000 0000 0000 0000 0000 0000
00000110: 0000 0000 0000 0000 0000 0000 0000 0000
00000120: 0000 0000 0000 0000 0000 0000 0000 0000
00000130: 0000 803f 0000 0000 0000 0000 0000 0000
00000140: 0000 0000 0000 0000 0000 0000 0000 0000
00000150: 0000 0000 0000 803f 0000 0000 0000 0000
00000160: 0000 0000 0000 0000 0000 0000 0000 0000
00000170: 0000 803f 0000 0000 0000 0000 0000 0000
00000180: 0000 0000 0000 0000 0000 0000 0000 0000
00000190: 0000 0000 0000 0000 0000 0000 0000 0000
000001a0: 0000 0000 0000 0000 0000 0000 0000 0000
000001b0: 0000 0000 0000 0000 0000 0000 0000 0000
000001c0: 0000 0000 0000 803f 0000 0000 0000 0000
000001d0: 0000 0000 0000 0000 0000 0000 0000 0000
000001e0: 0000 0000 0000 0000 0000 0000 0000 0000
000001f0: 0000 0000 0000 803f 0000 0000 0000 0000
00000200: 0000 803f 0000 0000 0000 0000 0000 0000
00000210: 0000 0000 0000 0000 0000 0000 0000 0000
00000220: 0000 803f 0000 0000 0000 0000 0000 0000
00000230: 0000 0000 0000 803f 0000 0000 0000 0000
00000240: 0000 0000 0000 0000 0000 0000 0000 0000
00000250: 0000 803f 0000 0000 0000 0000 0000 0000
00000260: 0000 0000 0000 0000 0000 0000 0000 0000
00000270: 0000 0000 0000 0000 0000 0000 0000 0000
00000280: 0000 0000 0000 0000 0000 0000 0000 0000
00000290: 0000 803f 0000 0000 0000 0000 0000 0000
000002a0: 0000 0000 0000 0000 0000 0000 0000 0000
000002b0: 0000 0000 0000 0000 0000 0000 0000 0000
000002c0: 0000 0000 0000 0000 0000 0000 0000 0000
000002d0: 0000 0000 0000 0000 0000 0000 0000 0000
000002e0: 0000 0000 0000 0000 0000 0000 0000 0000
000002f0: 0000 0000 0000 0000 0000 0000 0000 0000
00000300: 0000 0000 0000 0000 0000 803f 0000 0000
00000310: 0000 0000 0000 0000 0000 0000 0000 0000
00000320: 0000 803f 0000 0000 0000 0000 0000 0000
00000330: 0000 0000 0000 0000 0000 0000 0000 803f
00000340: 0000 0000 0000 0000 0000 0000 0000 0000
00000350: 0000 0000 0000 0000 0000 0000 0000 0000
00000360: 0000 0000 0000 0000 0000 0000 0000 0000
00000370: 0000 803f 0000 0000 0000 0000 0000 0000
00000380: 0000 0000 0000 803f 0000 803f 0000 0000
00000390: 0000 0000 0000 0000 0000 0000 0000 0000
000003a0: 0000 0000 0000 0000 0000 0000 0000 0000
000003b0: 0000 0000 0000 0000 0000 0000 0000 0000
000003c0: 0000 0000 0000 0000 0000 0000 0000 0000
000003d0: 0000 0000 0000 0000 0000 0000 0000 0000
000003e0: 0000 0000 0000 0000 0000 0000 0000 0000
000003f0: 0000 0000 0000 0000 0000 0000 0000 803f
0.0 0.0 0.0 0.0 0.0 0.0 0.0 0.0
0.0 1.0 0.0 0.0 0.0 0.0 0.0 0.0
0.0 0.0 0.0 1.0 0.0 0.0 0.0 0.0
0.0 0.0 0.0 0.0 0.0 0.0 0.0 0.0
1.0 0.0 0.0 0.0 0.0 0.0 0.0 0.0
0.0 1.0 0.0 1.0 0.0 0.0 0.0 1.0
0.0 0.0 0.0 0.0 0.0 1.0 0.0 0.0
1.0 1.0 0.0 0.0 0.0 0.0 0.0 0.0
0.0 0.0 0.0 0.0 0.0 0.0 0.0 0.0
0.0 0.0 0.0 0.0 1.0 0.0 0.0 0.0
0.0 0.0 0.0 0.0 0.0 1.0 0.0 0.0
0.0 0.0 0.0 0.0 1.0 0.0 0.0 0.0
0.0 0.0 0.0 0.0 0.0 0.0 0.0 0.0
0.0 0.0 0.0 0.0 0.0 0.0 0.0 0.0
0.0 1.0 0.0 0.0 0.0 0.0 0.0 0.0
0.0 0.0 0.0 0.0 0.0 1.0 0.0 0.0
1.0 0.0 0.0 0.0 0.0 0.0 0.0 0.0
1.0 0.0 0.0 0.0 0.0 1.0 0.0 0.0
0.0 0.0 0.0 0.0 1.0 0.0 0.0 0.0
0.0 0.0 0.0 0.0 0.0 0.0 0.0 0.0
0.0 0.0 0.0 0.0 1.0 0.0 0.0 0.0
0.0 0.0 0.0 0.0 0.0 0.0 0.0 0.0
0.0 0.0 0.0 0.0 0.0 0.0 0.0 0.0
0.0 0.0 0.0 0.0 0.0 0.0 0.0 0.0
0.0 0.0 1.0 0.0 0.0 0.0 0.0 0.0
1.0 0.0 0.0 0.0 0.0 0.0 0.0 1.0
0.0 0.0 0.0 0.0 0.0 0.0 0.0 0.0
0.0 0.0 0.0 0.0 1.0 0.0 0.0 0.0
0.0 1.0 1.0 0.0 0.0 0.0 0.0 0.0
0.0 0.0 0.0 0.0 0.0 0.0 0.0 0.0
0.0 0.0 0.0 0.0 0.0 0.0 0.0 0.0
0.0 0.0 0.0 0.0 0.0 0.0 0.0 1.0
