trained_model.pth (torch, 10688 bytes, 4 tensors)

layer1.weight f4 [8, 149]
-0.010552313 0.279372 0.14118111 1.5999973 0.9194578 0.7251836 0.042268306 0.55987525
0.55472624 0.6612003 0.20760743 0.8079342 -0.62500644 1.0827906 0.8015403 0.3240783
-0.8291368 -0.82946765 0.36507294 0.8123224 -0.42402565 -0.5412655 1.1078347 -0.32816967
1.1442336 -0.8291651 -0.5013738 -0.6385802 -0.5104008 0.259037 0.8753872 0.6617047
-0.009892243 1.2984842 0.38710693 0.409509 -0.1950754 1.09886 -0.5052837 0.2459206
0.08246745 0.5184659 0.46925107 -0.08085163 0.67624724 -0.61669636 -0.8197926 1.0933077
-0.5409218 0.3790578 -0.8294576 0.61982566 0.5846419 -0.32056937 -0.6556025 1.0602413
0.2102684 0.67587125 -0.35995874 1.3354853 0.30900788 0.43310228 1.0045211 -0.8567516
0.80633396 0.44621196 0.58111596 -0.43591774 -0.48702154 0.38493806 0.11606483 0.004893828
0.1610188 0.63098395 0.94242924 0.5190972 -0.47186902 -0.4689292 -0.56116784 0.4149525
0.58425444 0.019284248 0.13538665 -0.3390506 0.2718504 0.8557186 -0.81464845 -0.6020762
1.1801564 0.855492 0.33055025 0.6652462 1.1257858 1.0889038 -0.54840016 1.5974816
0.57170314 0.73704875 0.8886031 -0.19045983 0.17631756 0.95190346 0.4800921 -0.77749527
0.27883506 0.95008445 -0.8293889 0.3695504 1.3897786 0.5902282 -0.31513593 1.5963578
-0.48341382 -0.3277922 -0.61555594 -0.32487983 -0.20666395 -0.0042003337 0.56340694 0.8680987
0.49607164 -0.5437355 -0.6474303 0.5272282 1.0681282 1.250684 0.95005435 0.940061
0.12616411 0.5805151 0.66824 1.3556931 1.2362477 1.2392522 0.078369044 -0.829413
0.0047961967 0.14528367 0.43642792 0.047574114 0.5176746 -0.2692701 0.1945173 0.25046468
0.9614861 1.0602405 -0.54766047 0.21979178 0.13781594 0.07179375 0.48425353 0.2857918
-0.5563912 -0.23600835 0.9456825 -0.3875898 0.4414289 0.4617017 0.43558264 0.20018275
-0.03090045 -0.7410148 -0.24158819 0.55564535 0.41640052 -0.5556027 -0.5557562 0.4371602
-0.022180876 -0.6737857 -0.6365389 0.8177642 -0.27310795 -0.31445047 -0.5558991 -0.2824845
-0.37240672 -0.41565293 0.20959236 0.5779163 0.46672013 0.17349467 -0.28322718 0.4309333
0.64890426 -0.18442297 1.1969596 -0.1924275 0.25799194 0.19509466 0.50938255 -0.47525036
0.5624282 0.46189412 -0.39995554 -0.72921485 -0.18487728 -0.46232876 0.48591542 -0.5555579
-0.20269307 0.27982512 -0.16756994 -0.51841086 -0.24148338 0.2456594 0.47987285 -0.5289759
-0.342609 0.29790756 0.43119392 -0.095042676 -0.14462961 0.22437415 0.41246235 -0.092043266
-0.26364318 -0.1464777 0.36104244 0.3408814 0.22486317 0.31093988 0.17377663 -0.39225608
0.3202232 -0.32472304 -0.48265713 -0.6225597 0.89018255 0.7010538 -0.017550142 0.2480281
-0.45360386 0.26955914 0.5903551 -0.5310553 -0.20674086 -0.67581904 0.9066564 0.3168016
0.79418844 0.34021384 -0.2412086 -0.8318357 -0.55551094 0.57327175 -0.19022228 -0.21061793
-0.18320012 -0.026403787 -0.30631518 0.11983836 -0.6277984 0.4009501 -0.06985296 -0.55566543
00000000: 9ce3 2cbc d909 8f3e c891 103e b6cc cc3f
00000010: 9661 6b3f a2a5 393f 8821 2d3d fc53 0f3f
00000020: 8a02 0e3f 6c44 293f 0b97 543e c7d4 4e3f
00000030: 6c00 20bf e298 8a3f bf31 4d3f 97ed a53e
00000040: 4f42 54bf fe57 54bf d7ea ba3e 5cf4 4f3f
00000050: e419 d9be 6090 0abf 87cd 8d3f db05 a8be
00000060: 3f76 923f 2a44 54bf 095a 00bf fe79 23bf
00000070: a0a9 02bf 7fa0 843e 6019 603f 7b65 293f
00000080: 1313 22bc bb34 a63f e132 c63e 2aab d13e
00000090: d8c1 47be 72a7 8c3f 465a 01bf 9cd2 7b3e
000000a0: b2e4 a83d 2eba 043f ad41 f03e 8a95 a5bd
000000b0: 8a1e 2d3f d0df 1dbf eedd 51bf 82f1 8b3f
000000c0: da79 0abf dd13 c23e 5557 54bf e5ac 1e3f
000000d0: 17ab 153f ab21 a4be 91d5 27bf fdb5 873f
000000e0: 9950 573e e605 2d3f 834c b8be 2ff1 aa3f
000000f0: 4836 9e3e 95bf dd3e 2694 803f 1354 5bbf
00000100: e76b 4e3f e575 e43e 04c4 143f 9c30 dfbe
00000110: e35a f9be 9a16 c53e 66b3 ed3d 685c a03b
00000120: 1de2 243e 2a88 213f 0b43 713f 8ee3 043f
00000130: d198 f1be 7d17 f0be b2a8 0fbf a774 d43e
00000140: b391 153f 00fa 9d3c cca2 0a3e 0a98 adbe
00000150: fa2f 8b3e 6010 5b3f cd8c 50bf aa21 1abf
00000160: 5d0f 973f 8601 5b3f e23d a93e 934d 2a3f
00000170: c019 903f 3361 8b3f f463 0cbf 477a cc3f
00000180: 235b 123f 3aaf 3c3f 7e7b 633f e707 43be
00000190: 978c 343e f2af 733f a2ce f53e ee09 47bf
000001a0: 78c3 8e3e bc38 733f d552 54bf b635 bd3e
000001b0: 44e4 b13f 3219 173f 7f59 a1be 7455 cc3f
000001c0: 0482 f7be 61d4 a7be 1395 1dbf a656 a6be
000001d0: b79f 53be f4a2 89bb 703b 103f b73b 5e3f
000001e0: 1afd fd3e 4032 0bbf febd 25bf 6df8 063f
000001f0: 6db8 883f 6a16 a03f c336 733f d6a7 703f
00000200: 2a31 013e a39c 143f c711 2b3f 5a87 ad3f
00000210: 5d3d 9e3f d19f 9e3f f37f a03d 6954 54bf
00000220: 6a29 9d3b 3ec5 143e 7b73 df3e 13dd 423d
00000230: 5386 043f c5dd 89be 8b2f 473e e83c 803e
00000240: f423 763f f6b5 873f 7a33 0cbf 1911 613e
00000250: 9f1f 0d3e 9a08 933d 14f0 f73e 4e53 923e
00000260: a76f 0ebf 2cac 71be 4018 723f 2c72 c6be
00000270: f802 e23e 2a64 ec3e b004 df3e b5fc 4c3e
00000280: f122 fdbc 25b3 3dbf e562 77be c63e 0e3f
00000290: 7332 d53e fb3b 0ebf 0a46 0ebf 76d3 df3e
000002a0: abb4 b5bc 387d 2cbf 37f4 22bf ff58 513f
000002b0: ced4 8bbe a7ff a0be 674f 0ebf cfa1 90be
000002c0: 18ac bebe 76d0 d4be 619f 563e 53f2 133f
000002d0: f1f5 ee3e 96a8 313e 2703 91be 4aa3 dc3e
000002e0: 971e 263f 60d9 3cbe f935 993f b70b 45be
000002f0: 8517 843e e5c6 473e e566 023f 0454 f3be
00000300: 4bfb 0f3f 637d ec3e f9c6 ccbe d3ad 3abf
00000310: 7850 3dbe 5bb6 ecbe e8c9 f83e 0b39 0ebf
00000320: c68e 4fbe 3d45 8f3e 7497 2bbe 93b6 04bf
00000330: 6b47 77be 238e 7b3e e5b1 f53e f76a 07bf
00000340: 726a afbe 5787 983e 73c5 dc3e bca5 c2bd
00000350: c919 14be 56c2 653e 442e d33e 2e81 bcbd
00000360: 3dfc 86be 40fe 15be 8eda b83e 0288 ae3e
00000370: 8842 663e 8333 9f3e 80f2 313e cad5 c8be
00000380: 4cf4 a33e 1942 a6be d61e f7be 1360 1fbf
00000390: 01e3 633f 4378 333f 51c5 8fbc 14fb 7d3e
000003a0: c43e e8be a803 8a3e 8321 173f 3df3 07bf
000003b0: e0b3 53be 7a02 2dbf a21a 683f d233 a23e
000003c0: ef4f 4b3f 8230 ae3e 63ff 76be 2ff3 54bf
000003d0: f735 0ebf f0c1 123f a1c9 42be 3aac 57be
000003e0: d098 3bbe c14c d8bc 58d5 9cbe d06d f53d
000003f0: 65b7 20bf 5549 cd3e 120f 8fbd 1740 0ebf

layer1.bias f4 [8]
0.8292069 0.5557242 0.49731082 0.94405544 0.7252305 0.62478936 1.6238685 0.6690718
00000000: e746 543f f143 0e3f 869f fe3e 9ead 713f
00000010: b5a8 393f 32f2 1f3f ecda cf3f 4a48 2b3f

layer2.weight f4 [11, 8]
-2.4163272 -1.4622825 0.91813815 0.73723096 0.6391892 0.9112501 -1.6185193 -2.4102998
0.12665811 1.1073549 -1.9557647 -2.0096977 0.78984165 -2.2360084 -1.0455534 0.7433361
-2.2617621 -1.8611866 0.5334262 -1.9955575 0.5228788 -2.0133598 0.4864476 -0.036719386
-2.0842254 -1.4869325 -1.5842656 -2.0206726 -0.5415227 0.76548785 -0.50575316 0.8906694
1.2515249 -1.3840579 -1.8306015 -2.3597307 -2.2194142 -1.8865476 1.1344227 -1.6723485
-0.45224655 0.5432836 0.30706885 0.032048624 -2.464097 -0.17359357 -0.053967353 0.022665666
-2.518225 -1.1097358 -1.9504489 1.3149979 -0.9067971 -2.2298276 1.1826742 -2.3200026
0.02217467 0.6131167 0.5144673 -0.2675593 0.20401534 0.05158349 -3.2611701 -0.1829502
0.62219155 0.084473714 -1.5662812 0.68445516 0.60593367 -1.5606863 -1.8669704 -2.3000739
1.241031 -1.2712015 -1.2754536 -1.9377795 -2.0193617 0.71312475 -2.619686 0.5913594
-0.017419958 0.25743008 -0.11971116 -2.4385104 0.6417035 0.60715455 -0.101466365 -2.561748
00000000: 1ba5 1ac0 132c bbbf 1a0b 6b3f 2bbb 3c3f
00000010: e7a1 233f b047 693f a42b cfbf 5a42 1ac0
00000020: aab2 013e cebd 8d3f 7f56 fabf e39e 00c0
00000030: 1033 4a3f c31a 0fc0 b2d4 85bf 464b 3e3f
00000040: b6c0 10c0 5d3b eebf 9f8e 083f 6e6e ffbf
00000050: 63db 053f e3da 00c0 a90f f93e 1167 16bd
00000060: f363 05c0 ce53 bebf 37c9 cabf b352 01c0
00000070: 3ba1 0abf 03f7 433f 0a79 01bf e902 643f
00000080: f831 a03f cf28 b1bf 2651 eabf d405 17c0
00000090: e20a 0ec0 647a f1bf c334 913f 840f d6bf
000000a0: dc8c e7be a214 0b3f 2138 9d3e 6b45 033d
000000b0: c4b3 1dc0 83c2 31be df0c 5dbd 59ad b93c
000000c0: 992a 21c0 d30b 8ebf 4fa8 f9bf da51 a83f
000000d0: db23 68bf 7fb5 0ec0 de61 973f ec7a 14c0
000000e0: a7a7 b53c 37f5 1c3f 21b4 033f 88fd 88be
000000f0: 66e9 503e 3649 533d 03b7 50c0 4c57 3bbe
00000100: f247 1f3f 8e00 ad3d e77b c8bf 7438 2f3f
00000110: 781e 1b3f 92c4 c7bf e3f8 eebf 6934 13c0
00000120: 1bda 9e3f bbb6 a2bf 1042 a3bf 2909 f8bf
00000130: 393d 01c0 588f 363f efa8 27c0 5463 173f
00000140: 4db4 8ebc e0cd 833e 202b f5bd 8e10 1cc0
00000150: ae46 243f 7b6e 1b3f 99cd cfbd aef3 23c0

layer2.bias f4 [11]
0.07345991 0.18560906 -0.31878662 0.10917862 0.6137841 -0.70889896 0.7970452 -0.70248175
-0.14957973 0.012355736 -0.6217163
00000000: 2672 963d 4d10 3e3e 0038 a3be 0a99 df3d
00000010: f420 1d3f 677a 35bf 270b 4c3f d8d5 33bf
00000020: 6e2b 19be b76f 4a3c cd28 1fbf
