trained_model.pth (torch, 4288 bytes, 4 tensors)

layer1.weight f4 [50, 5]
000000 b0 62 69 3e 5b d1 d4 3c 25 b0 08 3f 78 5d 3c 3e
       0.22791553 0.025978735 0.53393775 0.1839503
000010 6d 50 c6 3e 39 c3 74 be 60 e4 02 3f d4 68 19 3f
       0.38733235 -0.23902597 0.5112972 0.5992558
000020 c1 9d c3 be 72 41 91 3b a0 8a c8 3d 19 89 95 3e
       -0.38206294 0.0044328505 0.097920656 0.2920616
000030 b2 b9 d1 be 24 b0 90 3e ed b2 63 be 88 b5 c7 3d
       -0.40961987 0.28259385 -0.22236224 0.09751421
000040 d9 63 09 3f 9d a2 2d 3e 0d fb 09 3f e7 c4 83 be
       0.5366798 0.16956563 0.538987 -0.25736162
000050 a6 a2 b8 3e d8 ab 54 bd ea f4 cc be 1b 7e 23 3e
       0.3606159 -0.051921695 -0.40030605 0.15966074
000060 c5 d9 c2 be 62 0c d6 3e c2 da 84 3e 3f 6b 75 3e
       -0.3805677 0.41806322 0.2594815 0.23966692
000070 a0 5b b9 be e0 f5 d6 be b0 b4 ca 3d 30 9f 3f 3d
       -0.36202717 -0.41984463 0.09897745 0.046782672
000080 70 e3 c4 bc 28 42 aa be c0 38 b4 bb 02 fa 90 3e
       -0.024034232 -0.33253598 -0.005499929 0.2831574
000090 bc 1d b2 bd 1d af d1 3e d0 a1 eb 3d 3a de cb 3e
       -0.08697078 0.40953913 0.11505473 0.39817983
0000a0 40 9f 94 3e fa a9 8d 3e 08 42 28 be ba 58 fb bd
       0.29027748 0.27668744 -0.16431439 -0.122727826
0000b0 1d 24 46 3e 3c 3a 82 3e 48 88 df bd 50 3c b8 be
       0.19349714 0.25435054 -0.109146655 -0.35983515
0000c0 2f d1 75 be fc 0a ac be c0 63 a3 3e be 31 40 be
       -0.24005578 -0.3360213 0.3191204 -0.18768975
0000d0 9e d3 11 be 8c fb 04 3f 68 16 fa bd 40 e6 6c bd
       -0.14240882 0.5194633 -0.12211305 -0.05783677
0000e0 b3 e9 5e 3e 35 7a 9d 3d 36 4c c5 3e d6 83 8b 3d
       0.21768837 0.07689325 0.38534707 0.06812255
0000f0 80 4f a0 3b 60 4b fc 3c b9 8d b7 3e be 95 e6 3e
       0.0048922896 0.03079766 0.35850313 0.4503612
000100 32 70 b3 be ac 62 4d 3e 56 8e b4 3e 50 bb ab 3e
       -0.35046536 0.20057172 0.35264844 0.33541346
000110 82 a8 82 be 22 8d 07 be b8 d1 77 bd cd af 8c be
       -0.25519186 -0.13237432 -0.060502738 -0.27477875
000120 36 64 04 3f 02 93 ce be 80 a3 fa 3b 6c a3 f4 bd
       0.5171541 -0.40346533 0.0076488853 -0.11945233
000130 dd f0 02 3d c3 88 ca be 5a 53 dc be 60 c1 94 be
       0.031967986 -0.39557466 -0.43032342 -0.29053783
000140 0c b7 89 be 56 0c 83 bd 8b 55 1d be ab 73 46 be
       -0.26897466 -0.06398837 -0.15364663 -0.19380061
000150 bc fb ef 3d 80 43 b7 3e 51 fb 8a bd 2e 87 cb be
       0.117179364 0.35793686 -0.06786216 -0.3975157
000160 fd f8 93 be 7a 6d 31 3e ed 62 b8 be a0 01 be bc
       -0.289009 0.17326918 -0.36012974 -0.023194134
000170 b2 8d 07 be f0 16 77 be 1b 92 e2 be 40 7e 91 3b
       -0.13237646 -0.24129844 -0.44252095 0.004440099
000180 86 c6 65 3e 2e 20 2e be 21 99 65 3e 35 7a 7e 3e
       0.22439012 -0.17004463 0.22421695 0.24851306
000190 1e 16 6a be c2 ad bf 3e 9e fa 00 3e 65 86 11 3f
       -0.2286 0.37437254 0.12595603 0.56845695
0001a0 09 f1 e8 3e 68 d6 da 3d 05 51 30 be aa f3 1c be
       0.45496395 0.10685426 -0.17218406 -0.15327325
0001b0 a5 7c 23 3d 7a 19 d2 3e 4e 4d b9 3e a6 93 e1 3e
       0.039913792 0.41035062 0.3619179 0.4405796
0001c0 c1 0e d4 be e0 06 1a bd 56 0e a7 3e 60 65 1f 3d
       -0.41417506 -0.037604213 0.32628125 0.038915038
0001d0 c2 8b b9 be d6 c0 fe 3e cd 28 80 3e c5 1b c3 be
       -0.3623944 0.49756497 0.2503113 -0.38107124
0001e0 74 d9 83 3e a0 b3 ca 3d d0 16 08 bc 35 fb 38 3d
       0.2575184 0.09897542 -0.00830622 0.045161445
0001f0 26 19 a6 3e 48 e2 65 3e 7a 73 27 be c0 83 b6 3e
       0.32441062 0.224496 -0.16352645 0.35647392
000200 26 74 73 be 19 f3 03 3f de 30 d4 be d3 86 8b be
       -0.23774776 0.5154281 -0.41443533 -0.272513
000210 5e f7 c0 3d 32 6b 88 be eb 8a ad 3e e6 6d 87 3e
       0.094221815 -0.26644284 0.33895048 0.26451033
000220 2b 73 99 3e 11 64 91 bd 2e c8 16 3e f8 d5 e2 be
       0.2997068 -0.07099164 0.147248 -0.4430387
000230 85 6b d2 be 88 5c cc 3e 46 b0 14 3f 95 ae e2 3e
       -0.41097656 0.39914346 0.5808147 0.4427382
000240 14 b4 f2 3e a0 07 26 bc bc f4 ef bd d5 77 dd be
       0.47403014 -0.010133654 -0.11716601 -0.43255487
000250 66 02 a2 be 78 fb 0d 3e 10 a5 c4 3e aa d0 96 3e
       -0.31642455 0.13865459 0.38407183 0.29456073
000260 28 d8 ff 3d db 59 91 be c0 78 c9 bd a0 1c 7f 3c
       0.124924004 -0.28388867 -0.09837484 0.01557079
000270 7d df c3 3e d0 e4 95 be 41 cc 22 3f ec 8c 52 3e
       0.38256446 -0.29276133 0.63592917 0.2056157
000280 cc 3d 6f 3e 38 36 3a 3d 9b 7c 56 be d8 b2 90 be
       0.23363417 0.045461863 -0.2094597 -0.28261447
000290 c0 a2 86 3d d0 74 dc be 5b 69 04 3f 98 27 4e 3e
       0.06574011 -0.4305787 0.5172326 0.20132291
0002a0 df 25 8b be 25 36 2d be c8 c9 46 3d 2a 6f 4f bc
       -0.2717733 -0.16915186 0.048532277 -0.012660781
0002b0 1a b5 33 3e 03 a9 86 be b6 6e 07 3f 02 fa 96 be
       0.17549554 -0.2630082 0.52903306 -0.29487616
0002c0 16 f4 80 be 83 4c bd be e0 14 0e be 00 ea 64 3e
       -0.25186223 -0.36972436 -0.1387515 0.22354889
0002d0 80 90 1e bd ce aa 1f be a7 72 65 be 16 66 a4 3e
       -0.038712025 -0.155925 -0.22407018 0.32109135
0002e0 28 5c 8b 3d ca 10 1c be 5b 34 8d 3e 77 5b 0a 3f
       0.06804687 -0.1524078 0.27579007 0.54045814
0002f0 55 c1 ac 3e 0d a9 c3 3d 8c 44 e4 3e 48 44 08 bd
       0.3374125 0.09553728 0.44583547 -0.033268243
000300 10 cb b0 bd ee fc 07 3f b2 7a d2 be 3c 2b 3e 3e
       -0.08632481 0.53120315 -0.41109234 0.1857118
000310 b9 8b bd be 27 66 50 3e 5f e0 c1 3e 2c cd 20 be
       -0.37020662 0.20351468 0.37866494 -0.15703267
000320 46 0a 82 be ee 7a 14 be 0c 0f 93 3e 84 c9 c2 be
       -0.25398463 -0.14500019 0.28722417 -0.3804437
000330 a2 f8 84 be dd b1 ca be 0d 26 1c 3c 7a dd 10 be
       -0.25970942 -0.39588824 0.009530556 -0.14146987
000340 a8 e9 0a be 18 2f b7 3e 10 96 a4 be e9 c7 20 3f
       -0.13565695 0.35778117 -0.3214574 0.6280504
000350 a8 d5 e7 3d c8 ad f2 3d c6 57 21 3e e0 c8 24 be
       0.113200486 0.118495524 0.15756139 -0.16092253
000360 93 ff 59 be 03 65 55 be b3 2d 7c be e4 7f 31 3e
       -0.212889 -0.20839314 -0.24626808 0.17333943
000370 f0 c9 e9 3c df b3 0a 3e a0 5c b6 be fd c0 82 3e
       0.028538674 0.13545178 -0.35617542 0.25537863
000380 32 e2 08 3f 62 b7 bf 3e 7b 50 fb bd ef 90 f2 3e
       0.53470147 0.37444597 -0.1227121 0.473762
000390 b4 4e 72 3e f6 92 29 3e 2a 2e bd be 66 d4 0c be
       0.23662835 0.16559967 -0.36949283 -0.13752899
0003a0 31 26 16 3f a5 b3 20 3e ee ba 08 3f a4 0e 52 3e
       0.58652025 0.15693529 0.5341023 0.20513397
0003b0 70 0b 7d 3e 7b b8 11 bd 2a 03 24 3e 7e 53 40 3e
       0.24711394 -0.035576325 0.16016832 0.1878185
0003c0 80 b2 fb bd 7d ed 7a bd ce b0 9f be 6d b6 61 be
       -0.122899055 -0.061261643 -0.3118958 -0.22042246
0003d0 d4 22 e3 bd 0c 71 0b 3e 55 6b ef 3d 80 f4 2d bb
       -0.11090627 0.13617343 0.11690394 -0.0026543438
0003e0 c0 27 bb 3c f2 da 10 3f
       0.022846103 0.56584084

layer1.bias f4 [50]
000000 d0 8f ce 3e 8d 8c 05 3e 41 47 95 3e 85 8d 9f 3e
       0.40344095 0.13041897 0.29155925 0.31162658
000010 13 9b 92 3e d7 2e c4 3d f0 20 7c bd ec 1b da be
       0.28633937 0.095792465 -0.06155485 -0.42599428
000020 03 be 1f 3f 40 9a 62 3e 25 2d db bd f8 bf 8a 3e
       0.6239931 0.22129154 -0.1070197 0.27099586
000030 7c 83 82 3e 9c ce d7 be 76 dc 7f 3e 07 0a ba 3e
       0.2549094 -0.42149818 0.24986443 0.36335775
000040 e1 50 c8 3e f3 75 a6 3e d4 5e a7 be df 31 d7 3d
       0.39124206 0.32511863 -0.32689536 0.10507559
000050 d2 d3 6e 3e 08 4b a0 3e 40 4e 9d be 0e 77 8f 3e
       0.2332299 0.31307244 -0.30723763 0.2802052
000060 94 14 cf 3e 62 60 0f 3f 01 81 c3 3e f5 cb a3 3e
       0.40445387 0.56006444 0.3818436 0.31991544
000070 91 f1 7e 3d bc 6f 08 be 2a 17 49 be 46 91 de bd
       0.062242094 -0.13323873 -0.19637743 -0.108675525
000080 e1 52 94 be 50 d0 be 3e 38 56 4e 3e 30 ab e6 3c
       -0.28969482 0.37268305 0.20150077 0.0281578
000090 f7 74 87 3d e4 f8 d7 3e 36 ba d2 3e f4 c2 80 3e
       0.06614106 0.42182076 0.41157693 0.25148737
0000a0 1c c6 15 be 01 86 c7 be b9 24 11 be d0 e6 d0 bc
       -0.14626354 -0.38969424 -0.14174165 -0.025500685
0000b0 7d 9a 5c 3e 19 37 12 3f bd 30 a2 3e 77 8f 07 3f
       0.21543308 0.5711532 0.3167781 0.52953285
0000c0 9a 9d 26 3e e3 cb e9 bd
       0.16271058 -0.114158414

layer2.weight f4 [4, 50]
000000 04 aa 8f 3c 68 76 94 3e b3 9a 43 3e 16 b6 5e 3e
       0.017537124 0.28996587 0.19101982 0.21749148
000010 1a 50 89 3e f2 f3 96 3d 20 90 5f 3c 1f fb 70 bd
       0.26818925 0.073707476 0.013645202 -0.058833238
000020 81 a2 e2 3d 40 56 ca bd d0 c0 a1 3e 17 d8 3e 3d
       0.110661514 -0.09879732 0.31592417 0.046592798
000030 16 1a df 3d c0 63 2d 3d 51 cc 27 3e 9f 3a 9c ba
       0.108936474 0.042331457 0.16386534 -0.0011919326
000040 d7 11 11 3c ed 98 aa 3b 47 c4 03 be aa 68 92 3e
       0.008854351 0.0052062185 -0.12867843 0.28595477
000050 99 ac b5 3d 47 7d 80 3d bc 1b 99 3e 3d 18 d9 3d
       0.08870811 0.06273895 0.29903972 0.10600326
000060 5f 30 2b 3e 31 42 19 3e 70 87 45 3d 16 ec ab bc
       0.16717671 0.14966656 0.048224866 -0.020986598
000070 35 ac 0f 3e 7c d0 9a bc d4 0a d5 3d 11 ee 68 3e
       0.14030536 -0.018898241 0.10402456 0.22747065
000080 b6 f7 e3 3d fb ae 7a 3e 12 2c 88 3e f4 56 93 3d
       0.111312315 0.24480812 0.26596123 0.07194319
000090 d9 20 87 3e e3 68 8a 3e 08 09 1f 3e 47 c1 16 3d
       0.26392248 0.27033147 0.15530789 0.036805417
0000a0 65 44 b4 bc 58 3d 45 3c ac 3d eb 3d f8 39 35 3d
       -0.02200527 0.012038551 0.11486372 0.044244736
0000b0 e5 bb 37 3e 9d 87 8d 3e 72 89 69 3e 75 f3 66 3e
       0.1794277 0.27642527 0.22806337 0.22553809
0000c0 42 60 72 bb 9e be 59 3e 53 f6 28 be e2 28 14 bd
       -0.0036983644 0.21264121 -0.16500215 -0.0361718
0000d0 b7 72 05 be cf 3b ca bd b8 c7 8e be 01 43 0c bd
       -0.13032041 -0.09874689 -0.27886748 -0.034243587
0000e0 3e 51 b0 3d 7e ad 8b 3d a9 9d 3d be f7 20 be 3b
       0.08609246 0.068202004 -0.18517174 0.0058022696
0000f0 6f 14 66 be 65 3a f9 bd 5d c2 50 be c2 a4 28 bd
       -0.22468732 -0.12169341 -0.20386644 -0.04117275
000100 35 b3 43 be 40 ea 6a bc 97 5c 83 bd d4 8f e2 bd
       -0.19111331 -0.014338076 -0.064141445 -0.11062589
000110 f8 a4 d4 bd 46 c2 8e be 0d 9e 68 be dc 52 aa bc
       -0.10383028 -0.27882594 -0.22716542 -0.020791464
000120 b1 13 3f be 5f 4d 79 be 37 8b 6c be 41 fb 52 be
       -0.18659855 -0.24345921 -0.23099981 -0.20603658
000130 39 ee 89 bd 41 f7 c7 bd 97 8c 90 bc 80 d9 bb 3b
       -0.067348905 -0.09763957 -0.017645163 0.005732715
000140 00 37 78 bc 3a 1a f9 bd d4 24 34 3d 52 7c e1 bd
       -0.015149832 -0.121632054 0.043980435 -0.1101004
000150 88 6a d3 bd 89 dd fa bd 3c 34 99 be c8 53 8b bd
       -0.103230536 -0.12249286 -0.29922664 -0.068030894
000160 27 ec 45 be fd e9 23 be ef 2c 08 bd 64 80 ec bc
       -0.19328366 -0.16007228 -0.033245977 -0.028869815
000170 ec a0 88 be 80 62 83 3c 12 14 2d be 48 57 90 be
       -0.26685274 0.01603818 -0.16902187 -0.2819159
000180 92 db 93 be 8f 27 68 bd f1 ae aa 3d 88 1a 85 bd
       -0.28878456 -0.05667835 0.08334149 -0.06499201
000190 6a 3c 70 be b5 e6 0d be fd f7 76 bd 4e 15 7a be
       -0.23460546 -0.13857539 -0.060295094 -0.2442219
0001a0 92 1a 82 be 3b 56 11 be 5f c2 05 3e 0b ad 79 bc
       -0.25410897 -0.1419305 0.13062428 -0.015239011
0001b0 ec 27 82 be a9 5b 96 3d 3f 39 43 be 83 ee eb bd
       -0.25421083 0.073417015 -0.19064806 -0.11520102
0001c0 58 62 92 be 3a 41 d3 3d 24 df 4e be 6b af 65 3d
       -0.28590655 0.10315175 -0.20202309 0.056075495
0001d0 e5 46 a0 bc 84 fe 07 3d 30 9d ad bd 0e a5 80 bd
       -0.019565055 0.03320171 -0.08477247 -0.06281482
0001e0 8a 09 39 be 30 48 0f be e0 33 10 be 93 56 2c be
       -0.18070045 -0.13992381 -0.14082289 -0.168299
0001f0 9d ae 53 be f7 ff ac bd e9 f7 88 bd 64 1e c0 bc
       -0.20672078 -0.08447259 -0.0668791 -0.023451991
000200 b0 5f 86 be a8 24 13 3d 6a 68 4a bd ae 8a 81 be
       -0.2624488 0.03592363 -0.049415983 -0.25301117
000210 d4 37 ac bc 0a bc dd bd 0e 76 e9 bd f9 99 04 3e
       -0.021022715 -0.10826881 -0.1139947 0.12949361
000220 16 14 b1 be c9 66 f4 bd ec a2 23 be 7d 18 39 be
       -0.34585637 -0.11933667 -0.15980119 -0.18075748
000230 cf 5e 82 3c c0 03 c9 3d d6 be 8b be 7c d6 a0 3d
       0.015914349 0.098151684 -0.27294034 0.0785341
000240 d3 37 31 be 6d 55 6b bd ac 90 10 bd d8 24 0a be
       -0.17306451 -0.057454515 -0.03529422 -0.13490617
000250 4d 95 0e 3d b1 68 90 be 2e 35 5d be 17 1d 52 be
       0.034810353 -0.28204873 -0.21602318 -0.2051891
000260 39 51 a1 be f2 91 58 be 27 f2 c6 bd f9 bb 20 be
       -0.3150728 -0.21149424 -0.09714156 -0.15696706
000270 16 bf af bd f7 77 24 be 47 3e 37 be b8 8e 91 bd
       -0.085813686 -0.16061388 -0.1789485 -0.071072996
000280 37 51 3b be bb 3a b0 bd 5f b1 3c be f8 41 8f 3c
       -0.182927 -0.08604952 -0.18427037 0.017487511
000290 39 a7 47 be 13 35 31 be bb e4 b4 bd 89 af 12 bd
       -0.19497384 -0.17305402 -0.088326894 -0.035811935
0002a0 26 a6 9a bd d0 ae 52 be e6 bc 61 be 49 2c 89 bd
       -0.075512215 -0.20574498 -0.22044715 -0.066979
0002b0 94 39 4c be 7f 5f 8b be 83 c8 3f be ad 83 51 be
       -0.1994384 -0.27221295 -0.18728833 -0.20460387
0002c0 57 78 27 be e5 1a 76 be 82 a6 5b bd a8 ad 6b bd
       -0.163545 -0.24033697 -0.05362559 -0.05753866
0002d0 de f7 b9 bd 27 03 af be b9 35 05 3e d5 cf 89 be
       -0.0908048 -0.34182093 0.13008775 -0.26916376
0002e0 6c 64 70 be 5c ab f8 bd 6e 3a 61 be b7 98 89 be
       -0.23475808 -0.12142059 -0.21994945 -0.26874325
0002f0 92 63 a8 bd c8 c9 0d bd 08 0a bf bd 61 ee d8 3d
       -0.082221165 -0.03461626 -0.09328085 0.10592342
000300 36 31 8e bd ca d7 06 bd a2 d4 14 bd 13 98 1b be
       -0.0694298 -0.032920636 -0.036335595 -0.1519473
000310 a2 6c 91 bd 5f b0 6f be b7 fe 02 bd 4e 59 ad bd
       -0.07100798 -0.23407124 -0.031981196 -0.08464299

layer2.bias f4 [4]
000000 c1 fb ab 3d c9 36 22 be 00 73 7c be 64 82 9c 3c
       0.083976276 -0.15841211 -0.24653244 0.019105144
