trained_model.pth (torch, 6784 bytes, 4 tensors)

layer1.weight f4 [8, 83]
0.3837045 0.42322105 -0.34849 0.0019160429 0.23524602 0.33300003 0.24005064 0.06173017
0.39016995 -0.17779663 -0.34850416 -0.34844458 0.23306657 0.4282849 0.29660216 -0.13148227
-0.17067927 -0.3484411 -0.21704297 0.5700691 0.75108665 0.41854286 0.7371189 0.41079897
0.5765082 0.42821896 0.5566149 0.3263608 0.7242672 0.3131676 0.5272559 -0.34856713
-0.17779581 0.47081664 0.40514204 0.13703358 0.3741866 -0.67927504 0.28890505 0.496806
0.33830592 0.1749111 0.25208575 0.20305467 -0.25193223 0.45648727 0.26341313 0.37330297
0.3237125 0.23427598 0.30651537 0.6466921 0.45546234 0.15251452 0.16959429 -0.17774723
0.22762008 -0.34847045 0.5267896 0.08220689 -0.05197489 0.7534829 0.49539703 -0.041795503
0.37160546 -0.34863967 0.45273834 0.2529239 -0.34848753 -0.13141048 -0.17777522 0.15243985
0.5176674 1.0608124 0.20542578 0.10305412 -0.34846202 0.35010588 0.31995624 0.30788112
0.34545442 0.15017064 0.31543833 -0.5801493 -0.31640503 -0.396846 0.46425134 0.5534602
-0.30237585 -0.11452286 0.4645019 0.5881546 -0.1100433 -0.39691952 -0.39678216 0.5596568
0.52895844 -0.4231993 -0.20414877 -0.28714022 -0.39689994 -0.1928013 0.8089616 0.6986766
-0.2830946 0.4095268 -0.022852076 0.49071786 -0.10574823 0.13657697 0.661662 0.66214675
0.4647184 -0.25095004 -0.39684498 -0.109994225 0.5690887 0.5545986 0.36030847 -0.09608539
0.24706486 0.37881127 -0.5539521 -0.30316487 -0.26969254 -0.09730835 -0.2625685 0.5380481
0.60292447 0.34870118 0.49672058 0.38243705 -0.37074873 -0.18590215 -0.90935665 0.6469334
-0.40264758 -0.22841866 -0.13655162 0.44582635 -0.39683396 -0.6613669 0.37282825 0.47090554
0.5124412 0.089367986 0.57882917 0.587554 -0.39689857 0.2649704 0.78574216 -0.39701307
-0.20413142 -0.115996666 -0.21201234 -0.22624815 -0.5256404 0.7978919 0.40287483 -0.3969582
-0.25586691 -0.20807368 -0.18692231 -0.8468818 -0.2755177 -0.3942958 -0.5013521 -0.31294447
-0.6476705 0.2663789 0.51367503 -0.2551751 -0.16066025 0.49812344 0.6918152 -0.28167912
1.0737424 0.87730783 0.43452618 0.52302444 -0.27329153 0.5972077 -0.3660277 0.96572804
0.66969997 0.83273125 0.71675116 -0.29168975 0.26252955 -0.010952681 0.3584768 0.12464423
0.077952534 0.53931487 0.7929295 0.42094105 -0.4339794 1.0882882 -0.2817292 0.527747
0.57712823 0.2235266 -0.019653486 0.19801213 0.34293535 -0.5426805 -0.29501805 -0.34470898
-0.11443669 -0.34829035 0.39669815 0.7338503 0.5293746 0.43727133 0.31104514 -0.3882549
-0.24829319 -1.1039546 0.6373282 -0.5128131 -0.2619932 -0.28154895 0.5778218 -0.6476896
-0.5973887 0.37180284 0.2317667 0.45628217 -0.191413 0.35953107 0.41595268 0.94434166
0.26347038 0.51165366 -0.6477115 0.6435544 -0.28161806 -0.29238534 -0.40875176 -0.6477593
0.64799726 0.2910121 1.0296657 -0.14660296 -0.2923621 -0.30224466 -0.8604098 -0.38418376
-0.25327352 0.41006204 0.401879 0.48045102 -0.43153173 -0.1904573 0.3031781 0.27255738
00000000: eb74 c43e 6eb0 d83e 486d b2be bb23 fb3a
00000010: 55e4 703e fb7e aa3e d6cf 753e c6d8 7c3d
00000020: 5bc4 c73e 5210 36be 236f b2be 5467 b2be
00000030: 01a9 6e3e 2948 db3e 3ddc 973e 4aa3 06be
00000040: 8cc6 2ebe df66 b2be 8340 5ebe 0cf0 113f
00000050: 3747 403f 404b d63e d3b3 3c3f 3e54 d23e
00000060: 0b96 133f 843f db3e 507e 0e3f c318 a73e
00000070: 9369 393f 8157 a03e 3efa 063f 6477 b2be
00000080: 1b10 36be e10e f13e c76e cf3e 8852 0c3e
00000090: 6395 bf3e f8e4 2dbf 5deb 933e 5b5d fe3e
000000a0: 6f36 ad3e e51b 333e 6211 813e 90ed 4f3e
000000b0: 43fd 80be b3b8 e93e 16de 863e 9121 bf3e
000000c0: a5bd a53e 0be6 6f3e 95ef 9c3e 9d8d 253f
000000d0: 5c32 e93e c42c 1c3e 20aa 2d3e 5f03 36be
000000e0: 3d15 693e b86a b2be afdb 063f 165c a83d
000000f0: 9fe3 54bd 41e4 403f aea4 fd3e c331 2bbd
00000100: 1243 be3e e680 b2be 52cd e73e 3e7f 813e
00000110: f56c b2be 7890 06be b50a 36be 3119 1c3e
00000120: da85 043f b3c8 873f 235b 523e 0a0e d33d
00000130: 9d69 b2be 1441 b33e 4ed1 a33e 98a2 9d3e
00000140: 67df b03e 55c6 193e 2281 a13e aa84 14bf
00000150: d7ff a1be 662f cbbe 5ab2 ed3e 91af 0d3f
00000160: 02d1 9abe f68a eabd 31d3 ed3e 4d91 163f
00000170: 625e e1bd 0939 cbbe 0827 cbbe ab45 0f3f
00000180: d269 073f 94ad d8be 600c 51be 0b04 93be
00000190: 7836 cbbe b46d 45be 1b18 4f3f 78dc 323f
000001a0: c7f1 90be 7fad d13e 4734 bbbc 5f3f fb3e
000001b0: 8792 d8bd d5da 0b3e ae62 293f 7382 293f
000001c0: 92ef ed3e 867c 80be 442f cbbe a744 e1bd
000001d0: ccaf 113f 2dfa 0d3f 5a7a b83e 6bc8 c4bd
000001e0: 92fe 7c3e 8df3 c13e cecf 0dbf 6d38 9bbe
000001f0: 2415 8abe 9a49 c7bd 616f 86be 85bd 093f
00000200: 4259 1a3f f688 b23e 2952 fe3e cace c33e
00000210: c7d2 bdbe 225d 3ebe 99cb 68bf 6d9d 253f
00000220: d327 cebe 95e6 69be 30d4 0bbe 5a43 e43e
00000230: d22d cbbe 574f 29bf 58e3 be3e 881a f13e
00000240: 592f 033f 9006 b73d 262e 143f f069 163f
00000250: 4a36 cbbe 33aa 873e 6626 493f 4c45 cbbe
00000260: d407 51be a98f edbd c319 59be 98ad 67be
00000270: 5f90 06bf a542 4c3f 9c45 ce3e 1b3e cbbe
00000280: fd00 83be 4411 55be 9068 3fbe 3fcd 58bf
00000290: a810 8dbe 24e1 c9be 9c58 00bf 423a a0be
000002a0: bccd 25bf d162 883e 3580 033f 50a6 82be
000002b0: 1f84 24be 090a ff3e cd1a 313f 3f38 90be
000002c0: 6470 893f 3f97 603f 377a de3e eee4 053f
000002d0: deec 8bbe 9be2 183f fc67 bbbe f439 773f
000002e0: 7571 2b3f e02d 553f 017d 373f 5c58 95be
000002f0: 466a 863e e072 33bc 458a b73e 7945 ff3d
00000300: 94a5 9f3d 8a10 0a3f 6dfd 4a3f 9685 d73e
00000310: 8c32 debe 074d 8b3f cf3e 90be 6d1a 073f
00000320: adbe 133f 28e4 643e 5900 a1bc b1c3 4a3e
00000330: 3995 af3e 1ced 0abf 9b0c 97be b27d b0be
00000340: c95d eabd 1d53 b2be 051c cb3e 9ddd 3b3f
00000350: 1885 073f 07e2 df3e 4f41 9f3e 59c9 c6be
00000360: 9240 7ebe 624e 8dbf f127 233f b847 03bf
00000370: f923 86be 2f27 90be 21ec 133f fcce 25bf
00000380: 77ee 18bf f15c be3e 4054 6d3e d19d e93e
00000390: c501 44be 7514 b83e c0f7 d43e 60c0 713f
000003a0: 97e5 863e bcfb 023f 6cd0 25bf fbbf 243f
000003b0: 3e30 90be 88b3 95be e947 d1be 8ed3 25bf
000003c0: 26e3 253f 8aff 943e 16cc 833f 161f 16be
000003d0: 7cb0 95be d0bf 9abe d143 5cbf bcb3 c4be
000003e0: 11ad 81be a7f3 d13e 16c3 cd3e adfd f53e
000003f0: baf1 dcbe 3d07 43be 293a 9b3e a48c 8b3e

layer1.bias f4 [8]
0.34849945 0.39684582 0.6476332 0.512655 0.54112774 0.43544903 1.1728103 0.6717289
00000000: 856e b23e 602f cb3e 4acb 253f 5c3d 033f
00000010: 5987 0a3f 2df3 de3e a61e 963f 6df6 2b3f

layer2.weight f4 [5, 8]
0.55618244 0.9055904 0.89594424 0.5092526 -1.0992116 -1.2477309 -1.1672335 -2.1174655
-0.84778637 -0.79402936 -1.7582973 -0.045710236 0.798918 0.92861575 0.88929284 -1.7823418
0.6812727 -1.0883918 -1.8661685 0.8619601 -0.8954166 -1.316337 -1.1029818 1.1159805
-1.4745654 -0.9685885 0.7695223 -1.5791367 -1.1895173 -1.8519593 0.9038764 0.85549575
-0.34418228 0.4272321 0.06527463 -1.4446276 0.5553757 0.6326248 -1.374554 0.003907747
00000000: f961 0e3f c6d4 673f 9a5c 653f 615e 023f
00000010: f7b2 8cbf a5b5 9fbf e867 95bf 8e84 07c0
00000020: 8708 59bf 8245 4bbf e30f e1bf a83a 3bbd
00000030: e485 4c3f c3b9 6d3f b2a8 633f c723 e4bf
00000040: e367 2e3f 6c50 8bbf 9cde eebf 6ba9 5c3f
00000050: 063a 65bf bb7d a8bf 822e 8dbf 73d8 8e3f
00000060: 8fbe bcbf 6af5 77bf 6aff 443f 2721 cabf
00000070: 1a42 98bf 010d edbf 7264 673f c501 5b3f
00000080: a938 b0be 2abe da3e b5ae 853d 8fe9 b8bf
00000090: 1a2d 0e3f b3f3 213f 63f1 afbf 8f0c 803b

layer2.bias f4 [5]
-0.26250705 0.1739706 0.1357365 -0.008615905 -0.08528201
00000000: 5367 86be 5925 323e 82fe 0a3e ba29 0dbc
00000010: 56a8 aebd
